model.pt (torch_old, 447224 bytes, 6 tensors)

weight f4 [128, 784]
0	0xbd0cd820	-0.0343858
1	0xbd0aa4d4	-0.0338486
2	0x3c634530	0.013871476
3	0x3cfc7086	0.030815374
4	0x3c9e9878	0.019359812
5	0xbd0fb1c3	-0.035081636
6	0xbcd71b60	-0.02625817
7	0x3c688538	0.014191918
8	0x3bec7150	0.0072156563
9	0xbcfb9443	-0.030710345
10	0x3c5a07e8	0.013307549
11	0x3cdbbda6	0.02682383
12	0xbaa07500	-0.00122419
13	0x3c81aefc	0.01583051
14	0xbc449f13	-0.012000817
15	0xbc9cc3aa	-0.019136269
16	0xbca83a25	-0.020535538
17	0xbcbf38e5	-0.02334256
18	0xbc202418	-0.00977423
19	0xbc9f40f3	-0.01944015
20	0xbc542926	-0.012949264
21	0xbc0ac5b2	-0.008469986
22	0xbc976a6e	-0.018483367
23	0xbbe46538	-0.006970074
24	0xbc9184fe	-0.01776361
25	0xbb4d16e0	-0.0031294152
26	0xbb664a50	-0.0035139509
27	0xbcd66983	-0.026173359
28	0xbcf65c73	-0.03007338
29	0x3cda0cd8	0.026617453
30	0x3c814068	0.015777782
31	0x3c08c660	0.008348078
32	0x3cd12208	0.025528923
33	0x3d06c593	0.032903265
34	0xbcb5b985	-0.02218319
35	0x3c99ed94	0.018790044
36	0x3bbedfa9	0.005825002
37	0x3b00add4	0.001963486
38	0xbcb26155	-0.021774927
39	0x3c589816	0.013219854
40	0x3bda592b	0.0066634617
41	0x3c6c72ee	0.014431698
42	0xba74ba37	-0.00093356095
43	0xbcf55d4e	-0.029951718
44	0xbc2ca7ed	-0.0105380835
45	0x3c931a1b	0.017956784
46	0xbc8ffa22	-0.017575327
47	0x3c4b71ab	0.012417237
48	0xbc2ec80f	-0.010667815
49	0x3d0006c0	0.031256437
50	0xbcc070e7	-0.023491336
51	0x3d096730	0.033545673
52	0xbc438660	-0.011933893
53	0x3c84fdfa	0.016234387
54	0xbcbbdd03	-0.022932535
55	0x3ce130c2	0.02748907
56	0xbcee1b3c	-0.02906572
57	0x3c6c6044	0.014427248
58	0xbc84720c	-0.016167663
59	0x3c2e733c	0.010647591
60	0xbc79231d	-0.015206126
61	0xbcb136ea	-0.02163263
62	0xb843097c	-4.6500456e-05
63	0x3cbb478b	0.022861263
64	0xbd05621a	-0.03256426
65	0xbc766e91	-0.0150410095
66	0xbd0db24b	-0.03459386
67	0x3aad86ec	0.0013239062
68	0xbcd53169	-0.026024537
69	0xbc15b3d6	-0.0091371145
70	0x3c1c2387	0.009529955
71	0xbca9f60b	-0.020747205
72	0x3b0409f5	0.0020147536
73	0x3a8287db	0.0009958701
74	0x3cdc6854	0.026905216
75	0xbc94f26a	-0.018181998
76	0x3c811861	0.015758695
77	0xbcf9f9b2	-0.030514572
78	0x3c8b05cd	0.01697054
79	0x3c5f861d	0.013642815
80	0xbcc096e1	-0.023509445
81	0xbc6a4d2c	-0.014300626
82	0xbc193840	-0.00935179
83	0x3c9cab58	0.019124672
84	0x3c8e4812	0.01736835
85	0x3a8f40a0	0.0010929294
86	0x3be3ebd8	0.006955605
87	0x3b5d4b70	0.0033766888
88	0x3b4b9ff0	0.0031070672
89	0x3ce87870	0.028377742
90	0xbc3461f6	-0.011009684
91	0x3cfe1989	0.031018035
92	0x3bf88993	0.0075847595
93	0x3b5416b4	0.0032362165
94	0x3d41bac9	0.047297273
95	0xbb993397	-0.0046753394
96	0x3d05f1f5	0.03270145
97	0x3d481d4d	0.04885607
98	0x3cb2f996	0.021847527
99	0x3d0de6c1	0.034643892
100	0xbc1556e0	-0.009114951
101	0x3d3ce13b	0.046113234
102	0x3bc815e9	0.0061061275
103	0xbcb18981	-0.021672012
104	0x3a262a10	0.0006338665
105	0xbcb01db4	-0.021498539
106	0xbc800d17	-0.015631242
107	0xbba73bda	-0.0051035704
108	0xbcb86986	-0.022511255
109	0xbb4de3dd	-0.0031416335
110	0xbc5f978e	-0.013646973
111	0x3beadd68	0.007167507
112	0x3c28fb10	0.010313764
113	0x3c0a18e0	0.008428782
114	0x3c8d7fee	0.017272916
115	0xbc94ac60	-0.018148601
116	0x3c873df6	0.016509037
117	0xbc717b52	-0.0147388745
118	0xbc13607e	-0.0089951735
119	0xbbfc32c0	-0.0076964796
120	0xbb0c443f	-0.0021402983
121	0x3cf8ec9a	0.030386258
122	0x3c761472	0.015019523
123	0x3d74a46a	0.05972711
124	0x3c587dce	0.013213588
125	0x3d22a489	0.039707694
126	0x3c2e8b06	0.010653263
127	0xbc1cff48	-0.009582348
128	0x3d09a0c1	0.033600572
129	0x3c8a0515	0.016848126
130	0x3b040b1d	0.0020148226
131	0x3d11e65e	0.035620086
132	0xbcb66776	-0.02226613
133	0xbd28302b	-0.04106156
134	0xba124408	-0.00055795955
135	0xbd45fbf3	-0.04833598
136	0xbcd73668	-0.02627106
137	0x3c76e4ba	0.015069181
138	0x3c9049c0	0.017613292
139	0xbc265400	-0.010151863
140	0x3cdf6262	0.027268592
141	0xbb3e3260	-0.0029021725
142	0x3be8b038	0.007101085
143	0x3c3bb9d5	0.01145788
144	0x3c328b7e	0.010897515
145	0x3b8f0bb7	0.00436541
146	0x3be2b059	0.006917995
147	0x3ce9e195	0.028549949
148	0xbd090b43	-0.033458006
149	0x3b96a395	0.004597137
150	0xbb81381b	-0.003943456
151	0xbd63dced	-0.055630613
152	0xbcb11af1	-0.021619292
153	0xbd199ea8	-0.037504822
154	0xbc8063bf	-0.015672563
155	0xbbc58ef5	-0.0060290047
156	0x3c887d1e	0.016661223
157	0x3cc17586	0.02361561
158	0xba713286	-0.0009200949
159	0x3cdfdbb1	0.027326437
160	0x3c0df0e6	0.008663392
161	0x3c6af4f5	0.014340629
162	0xbc8d5da9	-0.017256575
163	0x3ca57a95	0.020200053
164	0xbbc4dab7	-0.006007518
165	0x3cdc817f	0.026917217
166	0xbcfa5d37	-0.030562026
167	0x3ae3f7a0	0.0017392524
168	0x3c8ea580	0.0174129
169	0x3c46323c	0.012096938
170	0xbc1c50f3	-0.009540784
171	0xbd09ce12	-0.03364379
172	0xbbdd0bfb	-0.006745813
173	0x3b13e79d	0.0022568472
174	0xbca41dea	-0.020033795
175	0xbba2e8c1	-0.004971594
176	0xbbf5db08	-0.007502917
177	0xbaf2ef16	-0.0018534388
178	0xbd9e49ee	-0.07728945
179	0xbcf85481	-0.030313732
180	0xbd49a42a	-0.049228825
181	0xbd8126b2	-0.06306209
182	0x39bf5e4d	0.00036500618
183	0x3d1f7c5e	0.038936965
184	0x3caa17f2	0.020763371
185	0xbc05f59c	-0.008176234
186	0xbb56b38b	-0.0032760825
187	0xbc13d119	-0.009022021
188	0x3c3783bc	0.0112008415
189	0x3a908ab7	0.0011027668
190	0xbb8b11c5	-0.0042440617
191	0x3cc72fb9	0.024314748
192	0xbbc70120	-0.006073132
193	0xbbaf2cc5	-0.005345913
194	0x3cd65a21	0.026166024
195	0x3ba8839e	0.005142643
196	0x3cc9a2ac	0.0246137
197	0xbca8244d	-0.020525122
198	0x3cb6890e	0.02228215
199	0x3b831068	0.0039997585
200	0xbbcf036c	-0.0063175466
201	0xbd28ac91	-0.041180197
202	0xbc40c17c	-0.01176488
203	0xbcd3c8cc	-0.025852583
204	0xbc0801ed	-0.00830124
205	0xbd21e495	-0.039524633
206	0xbd4010a3	-0.046890866
207	0xbd7e1901	-0.062035564
208	0xbcea689c	-0.028614335
209	0xbcc5f837	-0.02416621
210	0xbc30cf87	-0.010791666
211	0x3d440180	0.047852993
212	0x3c2f18c9	0.010687062
213	0xbd6fd01c	-0.058548078
214	0xbc08d7f1	-0.008352266
215	0xbc0000d2	-0.007812696
216	0x3d34673d	0.04404377
217	0x3da391ae	0.079867706
218	0x3d95235a	0.072821334
219	0x3d210b74	0.039317563
220	0x3a3416c1	0.00068698457
221	0xbcbfc7b2	-0.023410652
222	0xbcaa146a	-0.020761687
223	0xba198955	-0.0005856951
224	0xbb3497cb	-0.0027556296
225	0x3cba7584	0.022761114
226	0xbccc0486	-0.0249045
227	0xba247a7c	-0.0006274355
228	0xbc912362	-0.017717067
229	0x3a11b51c	0.00055582984
230	0x3b34b4f7	0.0027573684
231	0xbd0e7660	-0.03478086
232	0xbac5657e	-0.0015060154
233	0xbd388203	-0.045045864
234	0x39bcc62e	0.0003600581
235	0x3cb7d77b	0.022441616
236	0x3d6d49a4	0.057931557
237	0x3d1a2f7e	0.03764295
238	0x3bad3265	0.0052855485
239	0xbc202f41	-0.009776891
240	0xbdb34e5c	-0.0875518
241	0xbdbadc65	-0.09124068
242	0x3c0fcfeb	0.008777599
243	0x3be44055	0.006965677
244	0x3d89bf9a	0.06725998
245	0x3da2dbef	0.07952105
246	0x3d93d7d2	0.07218899
247	0x3d35d2b1	0.044390384
248	0xbc543e67	-0.012954331
249	0xbd24c0df	-0.040223
250	0x3be547f1	0.0069971015
251	0xbcc15308	-0.023599163
252	0x3b4656c0	0.003026411
253	0xbca7179e	-0.020397004
254	0x3cd21933	0.025646782
255	0xbc9b0918	-0.018925235

bias f4 [128]
0	0xbb6e7f61	-0.0036391842
1	0x3d564dd0	0.0523203
2	0xbd4cae8e	-0.049971156
3	0x3d42544c	0.047443673
4	0xbd000f0a	-0.031264342
5	0x3bb69fbf	0.0055732424
6	0x3ce9dadd	0.028546745
7	0xbd2ae949	-0.041726384
8	0x3d308977	0.043099847
9	0x3bef666d	0.0073059113
10	0x3d1b9c9f	0.037991162
11	0x3d9a7428	0.07541686
12	0x3cde484c	0.027134083
13	0x3cdfa3ce	0.027299788
14	0x3ca625e0	0.020281732
15	0x3c9fd26b	0.019509515
16	0x3cc095e3	0.023508972
17	0xbd260aa4	-0.04053749
18	0xb93444fe	-0.0001719184
19	0x3da74762	0.08167912
20	0xbc9fbf62	-0.019500438
21	0x3d55ed95	0.05222853
22	0xbc34a680	-0.011026025
23	0x3c8291d9	0.015938686
24	0x3bdab803	0.006674768
25	0xbcb6edab	-0.022330126
26	0x370dd85e	8.454632e-06
27	0x3d804a00	0.062641144
28	0xbcb037ba	-0.021510947
29	0xbc4f7ccf	-0.012664034
30	0xbc886180	-0.016648054
31	0x3c8dbaf0	0.017301053
32	0xba063c1a	-0.000512065
33	0xbda660f5	-0.08123962
34	0x3d9bd457	0.0760886
35	0x3dfbd18d	0.12295828
36	0xbd855e86	-0.065121695
37	0xbcb11e6c	-0.021620952
38	0x3b536a61	0.0032259452
39	0xbd4e2f56	-0.05033811
40	0x3c52916a	0.012852052
41	0xbd8ad97a	-0.067797616
42	0x3d2679fc	0.040643677
43	0x3dbca560	0.0921123
44	0x3c9eda2a	0.019391138
45	0xb9c26db4	-0.000370843
46	0x3d5d9bf3	0.054103803
47	0xbd1bb3e2	-0.038013346
48	0xbb4877e4	-0.0030589039
49	0x3b89c2ce	0.0042041307
50	0x3d66ee01	0.056379322
51	0x3d39889d	0.0452963
52	0xbccc8a01	-0.02496815
53	0xbd543d6b	-0.051816385
54	0x3cd3875e	0.025821384
55	0x3bb4a5bb	0.0055129207
56	0xbd55deda	-0.05221448
57	0xbb3cacd4	-0.0028789537
58	0x3dbad95c	0.09123489
59	0x3d7a5d9e	0.061124437
60	0xbc0c7c2c	-0.008574527
61	0x3da3be83	0.079953216
62	0x3c3fc18a	0.011703858
63	0x3da4bc16	0.08043687
64	0xbbde7b75	-0.0067896196
65	0xbab668cd	-0.0013916731
66	0x3d5ef5fe	0.054433815
67	0x3c6101b9	0.013733321
68	0x3d8f98ab	0.07011541
69	0xbc68fee0	-0.014220923
70	0x3d576a0c	0.05259137
71	0xbd1df5e3	-0.038564574
72	0xbd4406c8	-0.04785803
73	0x3e0378d0	0.12839055
74	0xbd972e89	-0.07381923
75	0x3d230157	0.0397962
76	0x3d43a737	0.04776689
77	0x3db6b0b1	0.0892042
78	0xbd901ba1	-0.0703652
79	0x3cb57833	0.022152042
80	0x3c9dd192	0.01926497
81	0x3c5b442a	0.013382951
82	0xba3de3b5	-0.0007243709
83	0xbc5b11ad	-0.013370913
84	0x3c200ef9	0.009769195
85	0x3d88c253	0.066776894
86	0x3caa0994	0.02075652
87	0x3d15e02c	0.03659074
88	0x3d673471	0.056446496
89	0x3db25e1f	0.087093584
90	0x3e2cca5d	0.1687407
91	0x3d92ca0b	0.07167443
92	0x3e046134	0.12927705
93	0x3dad1bdc	0.084525794
94	0x3cc1eed6	0.023673456
95	0x3cf83efb	0.030303469
96	0xbd1d0eb4	-0.0383441
97	0xbd0f4f35	-0.034987647
98	0xbd6ffb17	-0.058589067
99	0x3dd906c4	0.105969936
100	0x3d20f5a5	0.039296765
101	0xbd5773cd	-0.05260067
102	0xbd6c896b	-0.05774824
103	0x3d4e7562	0.050404914
104	0x3d83e8a4	0.06440857
105	0xbb2e6c44	-0.0026614824
106	0x3d97e0b7	0.07415908
107	0x3dde4d0b	0.108545385
108	0xbd112355	-0.035434086
109	0xbbd6e203	-0.0065577044
110	0x3d3e1efc	0.046416268
111	0xbc647da2	-0.013945969
112	0x3bfee459	0.007778686
113	0x3c98b988	0.018643156
114	0x3dc63eca	0.09679945
115	0x3bfed8cb	0.0077773086
116	0x3d41e8d6	0.04734119
117	0x3cc3760f	0.023860006
118	0x3d9e8795	0.07740704
119	0x3e01282f	0.12612985
120	0x3d5ba888	0.05362752
121	0xbd104898	-0.03522548
122	0xbe0119a0	-0.12607431
123	0xbb7d7d5c	-0.0038679456
124	0x3a2bf7a3	0.0006560033
125	0xbc144d1d	-0.009051588
126	0x3c6cfbf6	0.014464369
127	0x3d912bc7	0.07088428

weight f4 [64, 128]
0	0x3d969454	0.0735251
1	0x3cc3a862	0.023884002
2	0xbe3366c8	-0.17519677
3	0xbdb26cb6	-0.08712141
4	0x3da9c0e6	0.082887456
5	0xbe531034	-0.2061165
6	0xbdfe44ef	-0.12415492
7	0x3c29d02d	0.010364574
8	0xbd9c1ab4	-0.07622281
9	0xbd37d5aa	-0.0448815
10	0xbd2ea809	-0.04264072
11	0x3d206b2a	0.0391647
12	0xbd992281	-0.07477284
13	0x3e06e243	0.1317225
14	0xbc6985dc	-0.014253106
15	0xbe14be0b	-0.1452562
16	0x3d981383	0.074255966
17	0x3cb489c2	0.022038344
18	0x3d32da1d	0.04366504
19	0x3e1bc80a	0.15213028
20	0xbdc01d4e	-0.093805894
21	0xbcfadcec	-0.030622922
22	0x3df3f149	0.11911256
23	0xbdf064bf	-0.11737966
24	0xbd6a6e98	-0.057234377
25	0xbe51d062	-0.20489648
26	0x3d4f9444	0.050678506
27	0xbe172d09	-0.14763273
28	0x3e35dd03	0.1776009
29	0x3d6f801d	0.058471788
30	0xbdb93b3a	-0.090445
31	0xbd026715	-0.031836588
32	0x3de06298	0.10956305
33	0xbdd4ca66	-0.10390167
34	0x3e284084	0.16430861
35	0xbe9cdfeb	-0.30639586
36	0x3cc75072	0.024330352
37	0x3e11cdad	0.14238615
38	0x3dbe3eeb	0.092893444
39	0x3d8ec0ea	0.06970389
40	0x3e00cc90	0.12578034
41	0x3e27828d	0.16358395
42	0x3dfb68f3	0.12275877
43	0x3dac7cea	0.08422263
44	0xbe514928	-0.20438063
45	0x3d64d1e0	0.055864215
46	0xbde36f10	-0.11105168
47	0x3c96b4d7	0.018396778
48	0x3e409fe9	0.18811001
49	0x3d0ea70d	0.03482728
50	0x3d272fd0	0.040817082
51	0x3ccd7cc2	0.025083903
52	0x3db85d7c	0.09002206
53	0xbd887281	-0.06662465
54	0xbddeb3a4	-0.108741075
55	0xbd9089b6	-0.07057516
56	0xbe62f854	-0.22165042
57	0xbda6d212	-0.081455365
58	0x3b86421b	0.004097236
59	0xbd2db4be	-0.042408697
60	0x3d46ec23	0.04856504
61	0xbd94c5fb	-0.07264324
62	0xbe034b35	-0.12821658
63	0xbe3257c3	-0.17416291
64	0x3d8f0944	0.06984189
65	0xbd2d5907	-0.04232123
66	0xbdd3b87c	-0.10337922
67	0x3e92d15e	0.2867536
68	0x3e90f210	0.2830968
69	0x3d99dae8	0.07512456
70	0x3e3bf47f	0.18354987
71	0xbdaad1ed	-0.083408214
72	0xbe41dcf5	-0.18931945
73	0xbd141449	-0.036152158
74	0x3d5b4487	0.05353215
75	0x3cf97c4f	0.030454783
76	0x3e0d2e48	0.13787186
77	0xbd7ef750	-0.062247574
78	0x3ddfdc6a	0.109307125
79	0xbd811fa6	-0.063048646
80	0xbc095f3e	-0.008384524
81	0xbd135e6a	-0.035978712
82	0xbc92bbc7	-0.017911805
83	0xbcec9480	-0.028879404
84	0x3dee4725	0.116346635
85	0xbe729a08	-0.23691571
86	0x3e09e03d	0.13464446
87	0xbd907370	-0.07053268
88	0x3cb263c2	0.021776084
89	0x3d78f030	0.060775936
90	0x3cb7975e	0.022411045
91	0x3e0177ae	0.1264331
92	0x3e0b4bd2	0.13603142
93	0xbe3637ff	-0.17794798
94	0xbd62073f	-0.05518269
95	0x3c9bad22	0.019003455
96	0xbe003fb9	-0.12524308
97	0x3e29bb62	0.16575387
98	0x3d62a8e1	0.055336837
99	0xbdaa21c2	-0.0830722
100	0xbb8ec774	-0.0043572728
101	0x3e1dd5c3	0.15413575
102	0xbdd53664	-0.10410765
103	0xbe323a0a	-0.17404953
104	0x3c6bf746	0.014402216
105	0x3e4c165b	0.19930403
106	0x3e183203	0.14862828
107	0x3ccf507d	0.025306934
108	0xbdbda5ad	-0.09260116
109	0xbc7dc62e	-0.015489144
110	0x3e34483a	0.17605677
111	0xbd2f89eb	-0.04285614
112	0x3d992468	0.07477647
113	0x3e1c74b1	0.15278889
114	0x3db696ec	0.08915505
115	0x3db92268	0.090397656
116	0xbd6c04f6	-0.05762192
117	0xbe175a8a	-0.14780632
118	0xbe0766d4	-0.1322282
119	0x3bedcacf	0.0072568427
120	0xbcf7d583	-0.030253178
121	0xbc33c8a9	-0.010973134
122	0x3b6c8d01	0.0036094787
123	0xbd94d88e	-0.07267867
124	0xbdb29b83	-0.08721068
125	0x3e844680	0.25835037
126	0x3d6492fc	0.055804238
127	0x3e3d35d6	0.18477568
128	0x3c9b302c	0.018943869
129	0x3c9e1f4d	0.019302035
130	0x39ed8fd3	0.0004531132
131	0xbe1f23a4	-0.1554094
132	0x3df817eb	0.12113937
133	0xbc85d2fe	-0.01633596
134	0x3d8a1528	0.067423165
135	0x3dbcba9c	0.092152804
136	0x3e69e7c6	0.22842321
137	0x3db18a71	0.08668984
138	0x3e2d48af	0.16922258
139	0xbc9722b3	-0.018449163
140	0xbdb35151	-0.08755744
141	0x3e507274	0.2035616
142	0xb9153b1a	-0.00014231764
143	0xbb9768e6	-0.004620659
144	0x3ce0c838	0.027439222
145	0xbe2b9041	-0.16754247
146	0x3d5aa933	0.053384017
147	0xbddd447a	-0.108040765
148	0x3dd9b0c3	0.10629418
149	0x3e0830f6	0.13299927
150	0x3dcc48bf	0.09974813
151	0xbdbae433	-0.09125557
152	0x3da73ba8	0.081656754
153	0x3dfea249	0.12433297
154	0x3e3e9842	0.18612769
155	0xbb7cfb11	-0.0038601796
156	0x3c754efd	0.014972446
157	0xbd61998f	-0.055078086
158	0x3df97521	0.12180544
159	0xbe400255	-0.1875089
160	0xbdb59fb3	-0.08868351
161	0x3d859792	0.0652305
162	0xbd9473c8	-0.07248646
163	0x3e186497	0.14882122
164	0xbd11440d	-0.03546529
165	0x3e014bb1	0.1262653
166	0xbd5b0385	-0.053470153
167	0x3e1155e8	0.14192927
168	0xbdd1458f	-0.102183454
169	0xbdf55931	-0.119799025
170	0x3d51801f	0.051147576
171	0xbcaa5e72	-0.020796988
172	0x3da9c5d2	0.08289684
173	0xbc0332d9	-0.0080077285
174	0xbdb634fd	-0.088968255
175	0xbd3d5520	-0.04622376
176	0xbda6f18c	-0.0815154
177	0xbd51c926	-0.05121722
178	0x3da67c9f	0.08129238
179	0xbe331036	-0.17486653
180	0xbd9cf6f6	-0.076642916
181	0x3e9b4244	0.30323994
182	0xbc6c6f7f	-0.01443088
183	0xbbad38b0	-0.0052862987
184	0x3e0d0883	0.13772778
185	0x3de28dfe	0.11062239
186	0x3d8026ac	0.06257376
187	0x3dd9dc11	0.106376775
188	0xbdb9f5c0	-0.09080076
189	0xbc94a73d	-0.018146152
190	0x3de238ce	0.11045991
191	0x3d5da27d	0.05411004
192	0x3e1c70bd	0.15277381
193	0x3d202da0	0.03910601
194	0xbe2c1a4b	-0.16806905
195	0x3e400a64	0.18753964
196	0xbe05fd0a	-0.13084808
197	0x3d618a51	0.05506355
198	0x3d978bbe	0.073997006
199	0xbdc5b8fb	-0.09654423
200	0x3e0de9ed	0.13858767
201	0xbe60dcc1	-0.21959211
202	0x3e3a8591	0.18215014
203	0xbba98111	-0.0051728566
204	0x3e13ac84	0.14421278
205	0xbc6e9461	-0.0145617435
206	0x3e1b5f58	0.1517309
207	0x3dab1114	0.08352867
208	0x3b1e918e	0.0024195644
209	0x3cf62480	0.030046701
210	0x3ca94673	0.020663476
211	0x3cbd7c94	0.023130693
212	0x3dcbbf5b	0.099486075
213	0xbd81efa9	-0.0634454
214	0x3e13913a	0.14410868
215	0x3df16c87	0.11788278
216	0x3ce8fb87	0.02844025
217	0x3d840e9a	0.064480975
218	0xbe399a70	-0.1812532
219	0x3dc8b31f	0.0979979
220	0x3da20330	0.07910764
221	0x3dda5ce5	0.106622495
222	0x3def6229	0.116886444
223	0x3e48a595	0.19594415
224	0xbd7cd895	-0.061729986
225	0xbd920f88	-0.071318686
226	0x3d87ec44	0.06636861
227	0xbdd4305c	-0.10360786
228	0xbd370f16	-0.04469212
229	0xbcce3cce	-0.025175478
230	0x3d4f950b	0.050679248
231	0x3dac899a	0.08424683
232	0x3a276249	0.000638519
233	0x3c9d1293	0.019173896
234	0x3cfcbcba	0.03085171
235	0x3dfcedbd	0.123500325
236	0x3dab6515	0.08368889
237	0x3d5c2378	0.053744763
238	0xbd4d7304	-0.050158516
239	0xbe0e82a1	-0.13917018
240	0xbd09b529	-0.033620033
241	0x3e6a47fe	0.22879025
242	0x3d8ebce1	0.069696195
243	0xbdb29059	-0.087189384
244	0xbd91e811	-0.07124341
245	0x3ca8fa4b	0.020627161
246	0xbdcecdbd	-0.10097835
247	0x3e22a551	0.15883376
248	0x3e5e1dac	0.21691006
249	0x3d80b78f	0.06285011
250	0x3d541a66	0.051782988
251	0x3d5ebed1	0.054381195
252	0xbd7212c6	-0.059099935
253	0x3d1a33a2	0.037646897
254	0xbe013f69	-0.12621845
255	0x3d9521d6	0.07281844

bias f4 [64]
0	0x3d37385a	0.044731475
1	0x3daf9355	0.08573023
2	0x3d532dc2	0.05155731
3	0xbd84d833	-0.06486549
4	0xbd401a72	-0.04690022
5	0x3cbaec79	0.022817837
6	0xbd0c29e9	-0.034219656
7	0xbdecba83	-0.11559012
8	0xbd43e786	-0.04782822
9	0x3e6213bc	0.2207784
10	0xbcadfb5a	-0.021238018
11	0x3d4135fe	0.04717063
12	0x3b94fa56	0.004546444
13	0x3d93cff4	0.07217398
14	0x3d620782	0.05518294
15	0xbd4b4df7	-0.0496349
16	0x3e17593a	0.14780131
17	0x3e0462f1	0.12928368
18	0x3d9e24dd	0.07721875
19	0x3d96d02e	0.07363926
20	0xbd59d207	-0.053178813
21	0x3d99e95f	0.07515215
22	0x3d2b63ec	0.04184334
23	0x3c9e2448	0.01930441
24	0xbd9ce0d4	-0.0766007
25	0x3e29d68c	0.1658575
26	0xbc52af62	-0.012859197
27	0x3e4368ea	0.1908299
28	0x3d88709a	0.06662102
29	0x3d449d31	0.048001472
30	0xbca9b10e	-0.020714309
31	0xbd287fcf	-0.041137513
32	0x3bc7de44	0.006099494
33	0x3e19d3ac	0.15022153
34	0xbd66cacd	-0.05634575
35	0xbcfa0462	-0.030519668
36	0x3ceb70a2	0.028740231
37	0xbcc1bcca	-0.023649592
38	0x3e58fb73	0.2118967
39	0xbd2b4f6a	-0.041823782
40	0xbd6827cb	-0.056678575
41	0x3daf78d1	0.08567966
42	0xbb02e895	-0.0019975055
43	0x3ce272f7	0.02764271
44	0xbc9c12b9	-0.019051896
45	0x3d96f0c1	0.07370139
46	0x3c842b51	0.016133936
47	0xbd55d534	-0.05220528
48	0x3d7c80c5	0.06164624
49	0xbda145d6	-0.07874648
50	0xbd31f9db	-0.04345117
51	0x3d2bc674	0.041937307
52	0x3d1bbf1c	0.038024053
53	0x3d851a46	0.06499152
54	0x3d863f6f	0.06555068
55	0xbcadca66	-0.021214675
56	0xbcc18db7	-0.023627145
57	0x3ddbabc6	0.107261226
58	0xbc9126ec	-0.017718755
59	0x3c8047cd	0.015659237
60	0x3d4e7c58	0.050411552
61	0x3d91b62a	0.07114823
62	0x3e265d4f	0.16246532
63	0x3bceafaf	0.006307564

weight f4 [10, 64]
0	0x3ece5c8d	0.40304986
1	0xbeb843c9	-0.35989216
2	0x3d7f66c7	0.062353875
3	0x3b129574	0.0022366913
4	0x3da98470	0.082772136
5	0x3c8fcc15	0.017553369
6	0x3e86d893	0.26337108
7	0xbde4ae4f	-0.11166059
8	0xbd106ca4	-0.035259858
9	0x3d48b5e0	0.049001575
10	0xbee1a7ed	-0.4407343
11	0xbde8be64	-0.11364439
12	0xbe1f3946	-0.15549192
13	0xbca312d5	-0.01990644
14	0x3c86289c	0.016376786
15	0x3de1d9b4	0.11027852
16	0xbe177e33	-0.14794235
17	0x3d2f5779	0.04280803
18	0x3ed729dd	0.42024127
19	0x3d092fa6	0.033492707
20	0x3f1d3123	0.614031
21	0xbd5caa23	-0.053873193
22	0x3f036776	0.51329744
23	0x3d40246f	0.046909746
24	0xbb9b11b6	-0.004732336
25	0xbed7be0c	-0.42137182
26	0x3e3a8e95	0.18218453
27	0xbe25a742	-0.16177085
28	0x3e759b27	0.23984967
29	0xbd45bc3c	-0.048275217
30	0xbe77256f	-0.24135374
31	0x3e98a3a5	0.2981235
32	0xbdcf962a	-0.101360634
33	0xbe7d13f7	-0.24714647
34	0xbbdf874f	-0.00682155
35	0x3c09b5ea	0.008405188
36	0xbdb5189a	-0.08842583
37	0x3dc178d3	0.094468735
38	0xbf1c9593	-0.6116573
39	0xbd0605c3	-0.03272034
40	0xbd92b2ba	-0.07162996
41	0x3e207fb5	0.15673716
42	0x3f277f8c	0.65428996
43	0xbdb16501	-0.08661843
44	0xbda4ccdc	-0.08046886
45	0xbd0aa2d7	-0.033846702
46	0x3ebcd035	0.368776
47	0xbe7dc3e1	-0.24781753
48	0xbdf73922	-0.12071444
49	0xbe3cb024	-0.18426567
50	0xbecff763	-0.4061843
51	0xbe4ee5cd	-0.2020485
52	0x3ec416ff	0.38298795
53	0xbd6b84a9	-0.05749956
54	0xbea44a6c	-0.3208803
55	0x3d766aaf	0.060160335
56	0x3e5dfd82	0.21678737
57	0xbde17551	-0.110087045
58	0xbcebb4ce	-0.028772738
59	0x3d1f372c	0.038870975
60	0xbe93d495	-0.28873125
61	0x3b3f2c9f	0.0029170883
62	0xbeccd49e	-0.40005964
63	0x3d994786	0.07484345
64	0xbe7128bc	-0.23550695
65	0xbec669fc	-0.38752735
66	0xbdd4b7a2	-0.10386588
67	0x3e56da98	0.20981824
68	0xbd6d1a41	-0.057886366
69	0x3d8f17da	0.06986971
70	0xbe2f1298	-0.17096937
71	0xbe59eef1	-0.21282555
72	0xbde21cd2	-0.11040653
73	0x3e2562c6	0.1615096
74	0x3ed57a05	0.41694656
75	0x3d825e24	0.06365612
76	0xbe0daa3d	-0.13834472
77	0xbe03bfcc	-0.12866133
78	0x3c4b424d	0.012405944
79	0xbd855356	-0.06510036
80	0xbed94aec	-0.42439973
81	0xbc7e308f	-0.015514507
82	0xbf034782	-0.5128099
83	0x3c80f376	0.015741091
84	0xbdcdfb25	-0.10057668
85	0x3df8931c	0.12137434
86	0x3cfb6e0d	0.030692125
87	0xbd9bc66a	-0.07606204
88	0xbcf655fa	-0.030070294
89	0x3f5181db	0.8183877
90	0x3e474ee2	0.19463685
91	0x3f2e2546	0.68025625
92	0xbd95e201	-0.073184974
93	0x3e71b73b	0.23605053
94	0xbe0efc5a	-0.13963452
95	0x3e665ecc	0.224971
96	0x3e6a3a9f	0.22873925
97	0x3e4b2dfb	0.19841759
98	0x3e54f244	0.20795542
99	0xbd6322c9	-0.055453096
100	0x3d976926	0.07393102
101	0xbea7196f	-0.32636592
102	0x3ee57960	0.44819164
103	0xbdcbd757	-0.09953182
104	0xbad80ee8	-0.0016483935
105	0xbecf9495	-0.40543047
106	0x3e3ecebd	0.18633552
107	0xbe924dee	-0.2857508
108	0xbad76514	-0.0016433322
109	0xbe8cb14e	-0.27479023
110	0xbf275732	-0.65367424
111	0x3dd7f371	0.1054448
112	0xbea580b8	-0.32324767
113	0x3d94e761	0.072706945
114	0x3e9baab5	0.30403677
115	0xbdcfa96a	-0.10139735
116	0xbebfc989	-0.37458447
117	0x3d2a69ec	0.04160492
118	0xbdc51787	-0.09623628
119	0x3e4461a1	0.19177867
120	0x3db763b6	0.08954565
121	0x3d3cc6a2	0.04608787
122	0xbdc5735b	-0.09641143
123	0x3dbeb21f	0.09311318
124	0xbe5ba70c	-0.21450442
125	0xbea6675d	-0.32500735
126	0x3ef277ed	0.4735712
127	0xbcfd714d	-0.030937815
128	0x3eec9c5d	0.46213046
129	0x3e46d936	0.19418797
130	0x3df48cb0	0.119408965
131	0x3d11dacc	0.03560905
132	0x3ee52cbf	0.447607
133	0x3e065786	0.13119325
134	0x3e6cbb47	0.23118316
135	0x3d9f40ec	0.07776055
136	0xbe77d112	-0.24200848
137	0xbe9ea07c	-0.30981815
138	0x3e3074d6	0.1723207
139	0xbe9c6d8a	-0.30552322
140	0xbe371ea5	-0.17882784
141	0x3e1d2202	0.15345004
142	0x3e073139	0.1320237
143	0x3c29b7a6	0.010358727
144	0x3f018449	0.50592476
145	0xbcf9a529	-0.030474262
146	0x3ef67fd0	0.48144388
147	0x3dfa364a	0.12217386
148	0x3de090fa	0.10965152
149	0x3e8883f3	0.2666317
150	0xbe617c43	-0.22020058
151	0xbe9c5ef9	-0.30541208
152	0xbf067842	-0.5252725
153	0x3cb5cdaa	0.022192795
154	0xbe051a73	-0.12998371
155	0x3ed76a28	0.42073178
156	0x3cfaadc3	0.030600434
157	0x3e218440	0.15773106
158	0x3e95c5aa	0.29252368
159	0x3e3f4741	0.18679525
160	0xbe8f91e5	-0.28040996
161	0xbef02c41	-0.46908763
162	0xbe8fff51	-0.28124478
163	0xbdfd2390	-0.12360299
164	0xbe23527a	-0.15949431
165	0xbf265e1d	-0.64987355
166	0xbf29bfbc	-0.6630819
167	0xbd012228	-0.031526715
168	0xbe4e8bbd	-0.20170493
169	0x3edf0d96	0.43565053
170	0x3ee6fa7c	0.4511298
171	0xbdb25a18	-0.0870859
172	0x3c4cf717	0.012510083
173	0xbe02e8fa	-0.12784186
174	0xbeaed4c9	-0.34146717
175	0x3e9c82c5	0.3056852
176	0xbf002d45	-0.50069076
177	0x3ecacc7e	0.3960914
178	0x3f1e2c41	0.61786276
179	0x3d4e3b70	0.050349653
180	0xbe2555a8	-0.16145957
181	0x3cb75471	0.022379132
182	0x3e7d5d45	0.24742611
183	0xbe5346ba	-0.20632449
184	0xbd49febb	-0.049315196
185	0xbdd3aec9	-0.10336072
186	0xbe82c187	-0.25538275
187	0xbdace99d	-0.08442996
188	0x3eeaca14	0.45857298
189	0x3ea0a885	0.3137857
190	0x3ea9d210	0.33168077
191	0x3dc62f83	0.09677031
192	0xbea2a11c	-0.31763542
193	0x3eb584e6	0.35452956
194	0xbbe7968c	-0.007067507
195	0xbe910491	-0.28323796
196	0xbdae17cb	-0.08500632
197	0x3dc4814a	0.095949724
198	0x3c353fbe	0.011062561
199	0x3f4b6e98	0.7946563
200	0x3e757f92	0.23974445
201	0xbf25bdbd	-0.6474264
202	0x3ea187e2	0.31548983
203	0x3f17cbd7	0.5929541
204	0xbe75bace	-0.23997042
205	0xbe52c7f3	-0.20584087
206	0x3be41058	0.006959956
207	0x3d597fe6	0.05310049
208	0xbeab97a4	-0.3351413
209	0xbd6496b0	-0.05580777
210	0xbdeea9c1	-0.11653472
211	0x3dc4bfd7	0.09606903
212	0xbe22a1c3	-0.1588202
213	0xbead6dbf	-0.33872792
214	0xbc8a77e3	-0.01690287
215	0xbe6cc5b2	-0.2312229
216	0x3f439ed1	0.7641421
217	0xbe8c5842	-0.27411085
218	0xbccd5288	-0.025063768
219	0xbd28061d	-0.041021455
220	0xbdbbe736	-0.09174959
221	0xbe965a7d	-0.29365912
222	0x3e76654f	0.24062084
223	0x3e09ee41	0.13469793
224	0xbeb7797f	-0.35834882
225	0x3d45a3c5	0.048251886
226	0x3e11aa4a	0.14225116
227	0xbdeae8bc	-0.11470172
228	0x3e8f0337	0.2793214
229	0x3dcf072a	0.10108788
230	0x3e69dc09	0.22837843
231	0xbd3fb5a9	-0.046804104
232	0x3e5fc0f2	0.21850947
233	0x3e2740d5	0.16333325
234	0x3e81806b	0.25293288
235	0xbf02cc0f	-0.5109262
236	0xbe628a6d	-0.22123118
237	0x3ec88ed8	0.3917148
238	0xbdb4b804	-0.08824161
239	0x3e74a673	0.2389162
240	0xbe32f1dc	-0.17475075
241	0x3f1b6072	0.6069404
242	0x3e914e4f	0.28380057
243	0xbd67939f	-0.056537267
244	0xbd4d5753	-0.050132107
245	0x3c87df1a	0.016585875
246	0x3e2128ae	0.15738174
247	0xbe81e6b4	-0.25371325
248	0xbd18263a	-0.03714583
249	0xbc316460	-0.010827154
250	0x3eb46909	0.35236385
251	0x3b0f1458	0.0021832194
252	0x3d897f10	0.067136884
253	0x3e52496e	0.20535824
254	0xbdc02f51	-0.09384025
255	0xbe9c35fc	-0.30509937

bias f4 [10]
0	0xbe821443	-0.25406083
1	0x3e299b2f	0.16563104
2	0xbdc06ed5	-0.093961395
3	0xbe572383	-0.2100964
4	0x3dae8bec	0.08522782
5	0x3e4bd35c	0.19904846
6	0x3d8601dd	0.06543324
7	0x3e3cbd75	0.18431647
8	0xbe7a1c17	-0.24424778
9	0x3d8fcff5	0.070220865
